example_projects/ek_ra8p1/ethos_u55_face_detection/ethos_u55_face_detection_ek_ra8p1_ep/e2studio/src/face_detection_app/resources_downloaded/object_detection/yolo-fastest_192_face_v4.tflite (tflite, 510280 bytes, 84 tensors)

model/conv2d/Conv2D i1 [8, 3, 3, 1]
000000 7f 58 20 eb 5b 15 d6 b1 2f f1 d3 e1 c2 81 bb d7
       127 88 32 -21 91 21 -42 -79 47 -15 -45 -31 -62 -127 -69 -41
000010 ae d6 06 0f 0a e5 d8 d0 e0 81 96 35 2f 7f 32 4a
       -82 -42 6 15 10 -27 -40 -48 -32 -127 -106 53 47 127 50 74
000020 67 16 1c 6c 44 2e 19 56 7f 3e 56 4e 25 4f 5c 40
       103 22 28 108 68 46 25 86 127 62 86 78 37 79 92 64
000030 5d 7f 56 51 5c 3c 5a 43 5a 3e 04 50 61 2c 7f 05
       93 127 86 81 92 60 90 67 90 62 4 80 97 44 127 5
000040 49 30 47 7f 53 29 6d 32
       73 48 71 127 83 41 109 50

model/conv2d_1/Conv2D i1 [8, 1, 1, 8]
000000 25 7f b4 0f e4 0b e0 e2 eb d0 0e af 5b 7f bf fc
       37 127 -76 15 -28 11 -32 -30 -21 -48 14 -81 91 127 -65 -4
000010 e1 d3 f7 0e 7f 78 c3 6d 28 81 ea 15 2e 3e 4e 61
       -31 -45 -9 14 127 120 -61 109 40 -127 -22 21 46 62 78 97
000020 ff 81 35 19 73 15 f7 14 81 98 cb 2d 5c 62 a4 ff
       -1 -127 53 25 115 21 -9 20 -127 -104 -53 45 92 98 -92 -1
000030 ef fa 45 e1 7f 53 ef 19 56 60 2f 34 81 d7 14 11
       -17 -6 69 -31 127 83 -17 25 86 96 47 52 -127 -41 20 17

model/batch_normalization_2/FusedBatchNormV3;model/depthwise_conv2d/depthwise;model/conv2d_16/Conv2D i1 [1, 3, 3, 8]
000000 1b f8 82 c2 b5 1f b3 be fc eb ab ce be 58 9d ba
       27 -8 -126 -62 -75 31 -77 -66 -4 -21 -85 -50 -66 88 -99 -70
000010 24 db d0 de f2 4c aa c1 57 7f a5 69 81 30 bc a5
       36 -37 -48 -34 -14 76 -86 -63 87 127 -91 105 -127 48 -68 -91
000020 79 5b c0 7f 97 7f 93 c4 38 4f a2 32 86 f2 9e df
       121 91 -64 127 -105 127 -109 -60 56 79 -94 50 -122 -14 -98 -33
000030 7f 1b 81 0e 86 09 c7 b3 78 00 db 1f a6 58 9e 81
       127 27 -127 14 -122 9 -57 -77 120 0 -37 31 -90 88 -98 -127
000040 0e 43 bd e3 ab 5b 81 db
       14 67 -67 -29 -85 91 -127 -37

model/conv2d_2/Conv2D i1 [4, 1, 1, 8]
000000 ef 53 25 7f 10 fc cf 04 b7 3d 08 7f da 57 e8 1a
       -17 83 37 127 16 -4 -49 4 -73 61 8 127 -38 87 -24 26
000010 0e 3e f1 7f 57 48 ff 0c 02 91 08 81 30 c7 10 e8
       14 62 -15 127 87 72 -1 12 2 -111 8 -127 48 -57 16 -24

model/conv2d_3/Conv2D i1 [8, 1, 1, 4]
000000 64 c7 7f 02 7f a6 51 30 bf 81 cf e8 7f a2 4c 4a
       100 -57 127 2 127 -90 81 48 -65 -127 -49 -24 127 -94 76 74
000010 9e 7f d5 fe 1e a1 1d 7f dc aa 81 5a e3 7f fa 0a
       -98 127 -43 -2 30 -95 29 127 -36 -86 -127 90 -29 127 -6 10

model/batch_normalization_5/FusedBatchNormV3;model/depthwise_conv2d_1/depthwise;model/conv2d_16/Conv2D i1 [1, 3, 3, 8]
000000 d3 e0 ce 45 a7 56 0f 1f 3f 81 12 7f f8 f7 86 d8
       -45 -32 -50 69 -89 86 15 31 63 -127 18 127 -8 -9 -122 -40
000010 01 88 24 6f 87 4a c5 15 ab 0c fe 14 9c b8 8b d7
       1 -120 36 111 -121 74 -59 21 -85 12 -2 20 -100 -72 -117 -41
000020 d6 d5 0c 74 a8 7f c4 0f e9 a3 7f 31 bb 7e 81 2c
       -42 -43 12 116 -88 127 -60 15 -23 -93 127 49 -69 126 -127 44
000030 81 e7 78 15 95 ed 33 10 c0 fd 53 15 81 f3 b3 56
       -127 -25 120 21 -107 -19 51 16 -64 -3 83 21 -127 -13 -77 86
000040 b0 ca 57 08 21 69 00 7f
       -80 -54 87 8 33 105 0 127

model/conv2d_4/Conv2D i1 [4, 1, 1, 8]
000000 35 06 b8 81 7a 0d ca e5 e5 81 0f 34 28 13 e9 25
       53 6 -72 -127 122 13 -54 -27 -27 -127 15 52 40 19 -23 37
000010 c6 da 6a 7f af 1d 1d 2c 46 fa 44 45 1a e4 ae 81
       -58 -38 106 127 -81 29 29 44 70 -6 68 69 26 -28 -82 -127

model/conv2d_5/Conv2D i1 [24, 1, 1, 4]
000000 34 7f af 00 7f 36 ff 06 00 81 50 f3 c9 81 2d c6
       52 127 -81 0 127 54 -1 6 0 -127 80 -13 -55 -127 45 -58
000010 35 7f 35 09 81 8d 37 ef 7b 7f be 03 81 4c e9 26
       53 127 53 9 -127 -115 55 -17 123 127 -66 3 -127 76 -23 38
000020 f2 e5 2e 81 07 7f e5 fe 81 6d fe dc a3 7b f0 81
       -14 -27 46 -127 7 127 -27 -2 -127 109 -2 -36 -93 123 -16 -127
000030 53 81 bc 0d b2 81 74 19 6e 7f 60 04 58 7f 1a fe
       83 -127 -68 13 -78 -127 116 25 110 127 96 4 88 127 26 -2
000040 73 7f b7 01 aa cf 41 7f c4 81 30 e9 10 81 7a fb
       115 127 -73 1 -86 -49 65 127 -60 -127 48 -23 16 -127 122 -5
000050 28 51 81 fe b7 81 0f d0 26 81 c1 16 eb 57 7f f4
       40 81 -127 -2 -73 -127 15 -48 38 -127 -63 22 -21 87 127 -12

model/batch_normalization_8/FusedBatchNormV3;model/depthwise_conv2d_2/depthwise;model/conv2d_36/Conv2D i1 [1, 3, 3, 24]
000000 43 61 e0 57 f8 7d f8 e6 bd d0 f9 d1 f3 9c da d5
       67 97 -32 87 -8 125 -8 -26 -67 -48 -7 -47 -13 -100 -38 -43
000010 e3 40 d3 22 fe e5 e7 d2 fd 7f fe 1d 1d 4f f6 ad
       -29 64 -45 34 -2 -27 -25 -46 -3 127 -2 29 29 79 -10 -83
000020 f4 a2 7f bc 0c ba 2c 18 f8 28 24 34 16 08 29 bd
       -12 -94 127 -68 12 -70 44 24 -8 40 36 52 22 8 41 -67
000030 3e 5e 11 51 e7 e9 0f eb e1 a5 7a 87 e2 e7 ff f4
       62 94 17 81 -25 -23 15 -21 -31 -91 122 -121 -30 -25 -1 -12
000040 33 1b 1e 7f 29 e9 fa 85 11 07 ec 7f 1d f2 dc aa
       51 27 30 127 41 -23 -6 -123 17 7 -20 127 29 -14 -36 -86
000050 98 af 5c 8f 1f c8 f8 f4 e9 bc 14 58 e2 f3 da e3
       -104 -81 92 -113 31 -56 -8 -12 -23 -68 20 88 -30 -13 -38 -29
000060 46 43 16 3e 34 61 ce 81 cf 81 76 54 7f a7 63 16
       70 67 22 62 52 97 -50 -127 -49 -127 118 84 127 -89 99 22
000070 a7 dd 7f 2b 40 45 19 b5 7f 2b 3f 31 02 19 fb e0
       -89 -35 127 43 64 69 25 -75 127 43 63 49 2 25 -5 -32
000080 e8 b9 70 be 46 81 7f 4c 79 dc 62 4f 71 5f 27 ba
       -24 -71 112 -66 70 -127 127 76 121 -36 98 79 113 95 39 -70
000090 1d 2a cd 03 ed d1 07 ea a6 98 30 bd f9 b1 c6 e9
       29 42 -51 3 -19 -47 7 -22 -90 -104 48 -67 -7 -79 -58 -23
0000a0 f1 a9 c5 26 d2 f9 d0 db 3a 7a 7f 11 c8 7f 41 a0
       -15 -87 -59 38 -46 -7 -48 -37 58 122 127 17 -56 127 65 -96
0000b0 81 bd 51 81 2a e9 cc 17 81 8c d8 f2 0c 21 33 ca
       -127 -67 81 -127 42 -23 -52 23 -127 -116 -40 -14 12 33 51 -54
0000c0 40 4b 43 09 81 47 7f 98 ae ee 57 97 0a 34 1c 7f
       64 75 67 9 -127 71 127 -104 -82 -18 87 -105 10 52 28 127
0000d0 78 81 e9 18 7f 7f 7f 81
       120 -127 -23 24 127 127 127 -127

model/conv2d_6/Conv2D i1 [8, 1, 1, 24]
000000 18 4e a9 eb ab f5 de ff 24 1b 0d 43 fe 4c 0d 55
       24 78 -87 -21 -85 -11 -34 -1 36 27 13 67 -2 76 13 85
000010 06 90 a6 83 c8 81 a7 29 b2 cd c9 8c 25 81 c9 f5
       6 -112 -90 -125 -56 -127 -89 41 -78 -51 -55 -116 37 -127 -55 -11
000020 0e 29 eb 1c ce f8 03 92 e3 d3 ae 06 ae e2 c5 40
       14 41 -21 28 -50 -8 3 -110 -29 -45 -82 6 -82 -30 -59 64
000030 1b 9b 48 9d 93 42 2f 00 c1 39 e1 05 08 bf e7 82
       27 -101 72 -99 -109 66 47 0 -63 57 -31 5 8 -65 -25 -126
000040 fa 20 32 81 1a 1b 4a 0b f1 f6 21 f2 7f 22 b0 09
       -6 32 50 -127 26 27 74 11 -15 -10 33 -14 127 34 -80 9
000050 e4 fa e8 f3 f6 fb 10 c8 02 c8 cd ce cb 2a 48 e9
       -28 -6 -24 -13 -10 -5 16 -56 2 -56 -51 -50 -53 42 72 -23
000060 c1 0c 71 07 dc 21 bc 5f ef 37 d9 ec e9 06 17 c9
       -63 12 113 7 -36 33 -68 95 -17 55 -39 -20 -23 6 23 -55
000070 56 b7 41 dc d6 6f 7f ef e4 ba 0f 18 f7 15 fb 21
       86 -73 65 -36 -42 111 127 -17 -28 -70 15 24 -9 21 -5 33
000080 ea da 03 1d f1 1a c0 02 16 ec 15 f6 81 48 2c e5
       -22 -38 3 29 -15 26 -64 2 22 -20 21 -10 -127 72 44 -27
000090 f4 de f8 2e bc 05 3b 21 00 fe ec 1c 62 f3 81 da
       -12 -34 -8 46 -68 5 59 33 0 -2 -20 28 98 -13 -127 -38
0000a0 15 d1 31 e8 c5 57 21 e8 24 31 31 1c 2b 7f e8 f4
       21 -47 49 -24 -59 87 33 -24 36 49 49 28 43 127 -24 -12
0000b0 0c e9 26 db 0d 33 51 40 18 c0 14 31 15 06 de 0d
       12 -23 38 -37 13 51 81 64 24 -64 20 49 21 6 -34 13

model/conv2d_7/Conv2D i1 [32, 1, 1, 8]
000000 c0 26 1b 28 ba bd 81 54 9b 92 d6 7f 6e 66 f3 78
       -64 38 27 40 -70 -67 -127 84 -101 -110 -42 127 110 102 -13 120
000010 bd d8 81 6c 1a f9 f4 8a f7 dd e1 26 4c 6e 7f f4
       -67 -40 -127 108 26 -7 -12 -118 -9 -35 -31 38 76 110 127 -12
000020 df 09 2c e7 ff 81 e2 2f 11 37 16 cb 11 81 e5 21
       -33 9 44 -25 -1 -127 -30 47 17 55 22 -53 17 -127 -27 33
000030 35 ee 08 f9 81 0c 01 35 15 f8 69 7f 71 5a 7f 4f
       53 -18 8 -7 -127 12 1 53 21 -8 105 127 113 90 127 79
000040 2f f5 24 f1 77 12 47 81 08 11 eb 81 c8 b7 d8 31
       47 -11 36 -15 119 18 71 -127 8 17 -21 -127 -56 -73 -40 49
000050 0a cb de 16 66 a4 81 23 81 ce 04 2a 0f 1d 05 15
       10 -53 -34 22 102 -92 -127 35 -127 -50 4 42 15 29 5 21
000060 a3 ee ff 3a db 7f 77 1b d4 a0 81 0d 7f 34 59 0a
       -93 -18 -1 58 -37 127 119 27 -44 -96 -127 13 127 52 89 10
000070 35 b0 5b 65 a4 08 7f 71 e6 c0 e3 7f 2a d7 0e d9
       53 -80 91 101 -92 8 127 113 -26 -64 -29 127 42 -41 14 -39
000080 54 7f 44 d1 fa 08 b9 48 77 d6 f3 49 b4 e9 31 7f
       84 127 68 -47 -6 8 -71 72 119 -42 -13 73 -76 -23 49 127
000090 e5 be 01 47 1c 38 7f 36 b2 8f 1a 7f db 0a 48 14
       -27 -66 1 71 28 56 127 54 -78 -113 26 127 -37 10 72 20
0000a0 48 0f 29 61 9b 81 e2 d8 9f 81 1c eb 28 b1 fa 3e
       72 15 41 97 -101 -127 -30 -40 -97 -127 28 -21 40 -79 -6 62
0000b0 a3 f3 e6 30 57 7f 07 1f c9 98 02 56 1a 45 7f d9
       -93 -13 -26 48 87 127 7 31 -55 -104 2 86 26 69 127 -39
0000c0 cf 96 0f 7f 70 ef 07 89 67 28 c4 25 7f e7 53 ec
       -49 -106 15 127 112 -17 7 -119 103 40 -60 37 127 -25 83 -20
0000d0 bb d3 c5 e3 1e 7f 78 aa 41 7f ea 36 f0 4f ff cc
       -69 -45 -59 -29 30 127 120 -86 65 127 -22 54 -16 79 -1 -52
0000e0 ed ec b9 b9 7f e7 14 c4 1d fd 04 81 8f dd ac 05
       -19 -20 -71 -71 127 -25 20 -60 29 -3 4 -127 -113 -35 -84 5
0000f0 c4 cf c1 54 7f 32 23 d0 cf 0b 3f 83 a3 96 00 7f
       -60 -49 -63 84 127 50 35 -48 -49 11 63 -125 -93 -106 0 127

model/batch_normalization_11/FusedBatchNormV3;model/depthwise_conv2d_3/depthwise;model/depthwise_conv2d_5/depthwise i1 [1, 3, 3, 32]
000000 ee 7f 0e a6 e5 c3 e7 df 81 1c 08 b6 ff ff 81 75
       -18 127 14 -90 -27 -61 -25 -33 -127 28 8 -74 -1 -1 -127 117
000010 a7 81 e6 cf 28 23 34 43 e0 17 3d 81 7f b8 c0 fd
       -89 -127 -26 -49 40 35 52 67 -32 23 61 -127 127 -72 -64 -3
000020 f3 07 b8 cb 2c a1 2c 12 2f b7 b4 81 ef 2a 41 fc
       -13 7 -72 -53 44 -95 44 18 47 -73 -76 -127 -17 42 65 -4
000030 3e b2 2a e1 7f 4e 48 43 b6 74 79 d5 f1 9f 85 b7
       62 -78 42 -31 127 78 72 67 -74 116 121 -43 -15 -97 -123 -73
000040 f1 40 f3 48 49 81 4a 0e 9c af e1 fd 0c 72 57 1f
       -15 64 -13 72 73 -127 74 14 -100 -81 -31 -3 12 114 87 31
000050 32 cd 0b e8 24 e1 24 ff 16 5c 1e 07 f3 e0 ba 3e
       50 -51 11 -24 36 -31 36 -1 22 92 30 7 -13 -32 -70 62
000060 1f 27 12 ff c6 97 d6 d7 e8 a5 2b bb 53 fe 27 4a
       31 39 18 -1 -58 -105 -42 -41 -24 -91 43 -69 83 -2 39 74
000070 d2 a3 57 89 e7 ec 7f 17 20 4e f3 ee 12 00 b1 29
       -46 -93 87 -119 -25 -20 127 23 32 78 -13 -18 18 0 -79 41
000080 81 26 95 1a 44 b8 7f d8 ce eb f8 d1 f4 16 6a 3b
       -127 38 -107 26 68 -72 127 -40 -50 -21 -8 -47 -12 22 106 59
000090 7f e4 1d d5 19 57 20 d9 bf 4e 02 94 5e f9 81 81
       127 -28 29 -43 25 87 32 -39 -65 78 2 -108 94 -7 -127 -127
0000a0 08 3c 4e 81 c6 a2 87 7f 91 81 14 b9 4b 7f ca 3d
       8 60 78 -127 -58 -94 -121 127 -111 -127 20 -71 75 127 -54 61
0000b0 4d b6 7f da 1d 7f 26 81 30 7f 1b 81 9c 7f 93 50
       77 -74 127 -38 29 127 38 -127 48 127 27 -127 -100 127 -109 80
0000c0 2d 3f e5 22 7f b2 dc e8 14 c9 81 3c 29 f4 26 09
       45 63 -27 34 127 -78 -36 -24 20 -55 -127 60 41 -12 38 9
0000d0 d0 01 1b 81 1b 09 33 69 14 fe f1 b7 2a e6 84 f1
       -48 1 27 -127 27 9 51 105 20 -2 -15 -73 42 -26 -124 -15
0000e0 39 68 81 a6 35 03 8f ee f8 ee a3 de 5a d4 34 ee
       57 104 -127 -90 53 3 -113 -18 -8 -18 -93 -34 90 -44 52 -18
0000f0 5a 01 5e ab 48 53 2c d4 7f 2e 7f e5 5e 6f c8 20
       90 1 94 -85 72 83 44 -44 127 46 127 -27 94 111 -56 32

model/conv2d_8/Conv2D i1 [8, 1, 1, 32]
000000 f6 f5 e7 f5 d2 1f e7 32 e5 79 44 ed eb 3d ef e5
       -10 -11 -25 -11 -46 31 -25 50 -27 121 68 -19 -21 61 -17 -27
000010 c3 66 b4 10 e6 d8 c8 da 06 20 f6 03 de 4e 81 d8
       -61 102 -76 16 -26 -40 -56 -38 6 32 -10 3 -34 78 -127 -40
000020 20 41 15 19 08 18 31 21 ea 23 ce 11 fe 7f 95 21
       32 65 21 25 8 24 49 33 -22 35 -50 17 -2 127 -107 33
000030 f4 9c 1c fd 16 5f d9 06 63 49 3e 3b bf cd f8 d5
       -12 -100 28 -3 22 95 -39 6 99 73 62 59 -65 -51 -8 -43
000040 a4 74 28 df 24 15 0f f3 d8 2d 24 f6 df 3d 0f 3b
       -92 116 40 -33 36 21 15 -13 -40 45 36 -10 -33 61 15 59
000050 eb d4 04 0c e4 52 7c b1 7f 18 51 04 32 60 ee dc
       -21 -44 4 12 -28 82 124 -79 127 24 81 4 50 96 -18 -36
000060 44 92 37 0e 4a 69 17 00 22 ba ac 11 d7 37 17 e1
       68 -110 55 14 74 105 23 0 34 -70 -84 17 -41 55 23 -31
000070 3f 49 05 f6 43 86 b9 25 cd 1c e7 d9 8f 11 19 7f
       63 73 5 -10 67 -122 -71 37 -51 28 -25 -39 -113 17 25 127
000080 74 20 ea ed 2e e9 e0 a8 05 ff ce 06 51 e0 54 ef
       116 32 -22 -19 46 -23 -32 -88 5 -1 -50 6 81 -32 84 -17
000090 38 16 db cd 08 4c 16 1b 81 aa 03 0b 67 4f 8c 7e
       56 22 -37 -51 8 76 22 27 -127 -86 3 11 103 79 -116 126
0000a0 33 fa f4 14 05 ce e0 e1 03 f6 cd dc f2 17 f9 d0
       51 -6 -12 20 5 -50 -32 -31 3 -10 -51 -36 -14 23 -7 -48
0000b0 c3 02 da e6 ff ba 0c 10 0c 1e 81 ed 3b 4b e9 48
       -61 2 -38 -26 -1 -70 12 16 12 30 -127 -19 59 75 -23 72
0000c0 33 b7 da 1c d7 d0 04 10 2a e1 e8 06 e4 da 1b df
       51 -73 -38 28 -41 -48 4 16 42 -31 -24 6 -28 -38 27 -33
0000d0 14 41 fb 08 06 81 f9 dc c0 fd ba c1 fb 51 28 51
       20 65 -5 8 6 -127 -7 -36 -64 -3 -70 -63 -5 81 40 81
0000e0 bf 7f e6 18 c2 1d 33 02 e9 0c 30 f0 44 92 17 33
       -65 127 -26 24 -62 29 51 2 -23 12 48 -16 68 -110 23 51
0000f0 0c 00 35 f6 2c 45 18 df 4d de cf 0e ec 0a 15 da
       12 0 53 -10 44 69 24 -33 77 -34 -49 14 -20 10 21 -38

model/conv2d_9/Conv2D i1 [32, 1, 1, 8]
000000 7f f0 d5 86 39 12 a5 fe ba 12 7f 49 68 da 27 65
       127 -16 -43 -122 57 18 -91 -2 -70 18 127 73 104 -38 39 101
000010 1c fb df d5 f2 81 b4 e9 fb 1f 86 00 76 26 fc 81
       28 -5 -33 -43 -14 -127 -76 -23 -5 31 -122 0 118 38 -4 -127
000020 05 08 3f 38 7f d7 2d 19 81 fd 2b 3b 34 d7 72 02
       5 8 63 56 127 -41 45 25 -127 -3 43 59 52 -41 114 2
000030 eb f0 10 81 ac fd f7 be fe 1c ed 94 1e 7f 40 ac
       -21 -16 16 -127 -84 -3 -9 -66 -2 28 -19 -108 30 127 64 -84
000040 4d 34 dd 0d f5 f1 f6 81 f0 d1 fa 7f 65 fa f2 5a
       77 52 -35 13 -11 -15 -10 -127 -16 -47 -6 127 101 -6 -14 90
000050 ed fc 9a da 81 c4 60 31 0f 0c 4c f7 b5 81 fe 47
       -19 -4 -102 -38 -127 -60 96 49 15 12 76 -9 -75 -127 -2 71
000060 ed de 12 ee 03 66 1d 81 a6 7a d4 ec 0a b2 83 7f
       -19 -34 18 -18 3 102 29 -127 -90 122 -44 -20 10 -78 -125 127
000070 85 81 59 bf 0c 0f 63 ee 1f 0d 73 7f 4e c4 9c 30
       -123 -127 89 -65 12 15 99 -18 31 13 115 127 78 -60 -100 48
000080 41 c5 9f 8e 5b 66 56 81 9c 27 2b 15 7f f4 32 4f
       65 -59 -97 -114 91 102 86 -127 -100 39 43 21 127 -12 50 79
000090 be 19 c8 61 de 7f 7b 92 bb 22 06 63 7f 53 4d e1
       -66 25 -56 97 -34 127 123 -110 -69 34 6 99 127 83 77 -31
0000a0 ef 7f e5 02 30 67 34 f9 0a 81 16 96 de 2d e0 25
       -17 127 -27 2 48 103 52 -7 10 -127 22 -106 -34 45 -32 37
0000b0 ff 20 b1 5b 81 f7 b7 3d 90 86 0e 4b 7d 0b 7f 69
       -1 32 -79 91 -127 -9 -73 61 -112 -122 14 75 125 11 127 105
0000c0 e0 1d 37 7f 44 de 6f 24 d6 b3 e5 4b aa c0 81 70
       -32 29 55 127 68 -34 111 36 -42 -77 -27 75 -86 -64 -127 112
0000d0 05 95 cb 49 2d 82 79 7f d9 61 e8 31 6a 25 2f 81
       5 -107 -53 73 45 -126 121 127 -39 97 -24 49 106 37 47 -127
0000e0 17 2e da 49 81 b7 dd 28 01 4f 4d ca 49 be f4 7f
       23 46 -38 73 -127 -73 -35 40 1 79 77 -54 73 -66 -12 127
0000f0 f7 14 0c b6 bb b6 81 e2 a1 e5 2d 1d 77 a5 7f 02
       -9 20 12 -74 -69 -74 -127 -30 -95 -27 45 29 119 -91 127 2

model/batch_normalization_14/FusedBatchNormV3;model/depthwise_conv2d_4/depthwise;model/depthwise_conv2d_5/depthwise i1 [1, 3, 3, 32]
000000 e5 57 cb e7 10 cf 55 eb 81 ff c7 35 25 7b d0 de
       -27 87 -53 -25 16 -49 85 -21 -127 -1 -57 53 37 123 -48 -34
000010 da 2a 58 44 d6 19 3e 9f eb 06 8a 01 ee 7f 7d f7
       -38 42 88 68 -42 25 62 -97 -21 6 -118 1 -18 127 125 -9
000020 f9 99 0b 4a 04 1c 7f 0c 52 ab 2a 17 7f c6 ce 9a
       -7 -103 11 74 4 28 127 12 82 -85 42 23 127 -58 -50 -102
000030 a9 06 45 ed 25 1f 3e 2c c6 fc a8 6b 8b 48 38 eb
       -87 6 69 -19 37 31 62 44 -58 -4 -88 107 -117 72 56 -21
000040 f2 e5 d2 01 7f bf 35 e2 f8 f5 17 e2 08 82 c2 be
       -14 -27 -46 1 127 -65 53 -30 -8 -11 23 -30 8 -126 -62 -66
000050 d8 28 de 98 81 d5 11 25 42 26 81 39 b3 6c 3c ec
       -40 40 -34 -104 -127 -43 17 37 66 38 -127 57 -77 108 60 -20
000060 f4 77 27 57 01 a8 ff 0d bd 38 e0 01 94 a1 ec e1
       -12 119 39 87 1 -88 -1 13 -67 56 -32 1 -108 -95 -20 -31
000070 eb e3 8c 8c 24 cc 9d a9 37 21 0e 15 cc 17 72 07
       -21 -29 -116 -116 36 -52 -99 -87 55 33 14 21 -52 23 114 7
000080 81 2c 7f 7f ce ba 01 7f 0c c1 d5 47 c4 e1 df 43
       -127 44 127 127 -50 -70 1 127 12 -63 -43 71 -60 -31 -33 67
000090 81 04 5c 00 c7 7f d4 a6 81 dc e8 7f c3 db 2c 7f
       -127 4 92 0 -57 127 -44 -90 -127 -36 -24 127 -61 -37 44 127
0000a0 11 57 1a 3e 2b 91 4d 34 7a d6 d9 1f ee 81 9e f5
       17 87 26 62 43 -111 77 52 122 -42 -39 31 -18 -127 -98 -11
0000b0 ec 05 ae 10 b6 cd fb 7f 6e c4 a6 61 d3 02 f5 05
       -20 5 -82 16 -74 -51 -5 127 110 -60 -90 97 -45 2 -11 5
0000c0 19 7f e0 ff 11 81 f9 26 a4 7f 7f 4f c9 eb 7f 7f
       25 127 -32 -1 17 -127 -7 38 -92 127 127 79 -55 -21 127 127
0000d0 c8 7f 81 7f 07 f1 81 11 0e d6 05 ed fa 1f 0d f5
       -56 127 -127 127 7 -15 -127 17 14 -42 5 -19 -6 31 13 -11
0000e0 7f 22 f5 28 57 86 d3 38 91 f1 13 7f cd f7 de 32
       127 34 -11 40 87 -122 -45 56 -111 -15 19 127 -51 -9 -34 50
0000f0 5d 4d a8 e3 79 c3 cc 42 f5 93 93 07 81 e7 7f de
       93 77 -88 -29 121 -61 -52 66 -11 -109 -109 7 -127 -25 127 -34

model/conv2d_10/Conv2D i1 [8, 1, 1, 32]
000000 02 5f 2d fd 73 ff d9 0d e8 02 07 ef c3 ee fa f8
       2 95 45 -3 115 -1 -39 13 -24 2 7 -17 -61 -18 -6 -8
000010 a4 5c 24 27 21 e2 e4 c7 0e 20 fc d5 e4 7f 3a ec
       -92 92 36 39 33 -30 -28 -57 14 32 -4 -43 -28 127 58 -20
000020 01 dc d7 1a dc ee f0 26 05 d9 1b 17 f3 01 eb e4
       1 -36 -41 26 -36 -18 -16 38 5 -39 27 23 -13 1 -21 -28
000030 1f cc cc ed e5 2c fe 63 0e 7f f3 07 04 e3 c3 34
       31 -52 -52 -19 -27 44 -2 99 14 127 -13 7 4 -29 -61 52
000040 96 fc 26 7f e8 d7 db 25 ef 2a 1b fb 47 07 fd b8
       -106 -4 38 127 -24 -41 -37 37 -17 42 27 -5 71 7 -3 -72
000050 b6 1f 13 ee 3d 45 06 1d 6b 4f fb ec 20 00 d8 d5
       -74 31 19 -18 61 69 6 29 107 79 -5 -20 32 0 -40 -43
000060 6c 36 04 f8 f8 29 ab 81 12 eb e5 20 cd 03 dd 06
       108 54 4 -8 -8 41 -85 -127 18 -21 -27 32 -51 3 -35 6
000070 60 e9 5e 2a ce 93 05 93 d1 1c 03 9f e4 d3 28 44
       96 -23 94 42 -50 -109 5 -109 -47 28 3 -97 -28 -45 40 68
000080 7f dd a7 b4 90 f4 e3 dc 46 24 13 fe 1d 04 17 32
       127 -35 -89 -76 -112 -12 -29 -36 70 36 19 -2 29 4 23 50
000090 1b e1 d4 f5 27 e0 18 fb e5 b3 2f 2c f9 d0 da ef
       27 -31 -44 -11 39 -32 24 -5 -27 -77 47 44 -7 -48 -38 -17
0000a0 66 c7 e3 bc 46 aa f4 81 26 18 e1 a1 3e d6 d1 3f
       102 -57 -29 -68 70 -86 -12 -127 38 24 -31 -95 62 -42 -47 63
0000b0 66 e9 15 10 d6 c3 02 c1 af af f5 a0 b7 f4 e3 51
       102 -23 21 16 -42 -61 2 -63 -81 -81 -11 -96 -73 -12 -29 81
0000c0 30 18 a7 d1 9e 17 22 81 1d 50 b0 c8 66 f0 d8 1c
       48 24 -89 -47 -98 23 34 -127 29 80 -80 -56 102 -16 -40 28
0000d0 f2 01 ce 36 41 da b8 f6 f7 e4 c6 0a d6 e6 bf 5d
       -14 1 -50 54 65 -38 -72 -10 -9 -28 -58 10 -42 -26 -65 93
0000e0 d2 c2 2b eb d9 0c 16 dc 43 9b 02 23 0f 08 25 04
       -46 -62 43 -21 -39 12 22 -36 67 -101 2 35 15 8 37 4
0000f0 ea 14 d3 f7 f3 e4 ef 00 cd d1 1f 3e 0c 81 2b d3
       -22 20 -45 -9 -13 -28 -17 0 -51 -47 31 62 12 -127 43 -45

model/conv2d_11/Conv2D i1 [32, 1, 1, 8]
000000 ff f6 d9 7f 43 25 1d ed dc f6 15 3a 1a ea 1c 7f
       -1 -10 -39 127 67 37 29 -19 -36 -10 21 58 26 -22 28 127
000010 e9 db 0e d2 9b ad 81 fd 09 fd 0e ae d8 f3 7f 10
       -23 -37 14 -46 -101 -83 -127 -3 9 -3 14 -82 -40 -13 127 16
000020 08 09 ff 9d eb fd 7f 02 fc f7 a8 c5 1b 67 0c 81
       8 9 -1 -99 -21 -3 127 2 -4 -9 -88 -59 27 103 12 -127
000030 12 1c 0d 81 cf e4 94 0d 3d 10 ac b0 bc e3 81 f2
       18 28 13 -127 -49 -28 -108 13 61 16 -84 -80 -68 -29 -127 -14
000040 25 ce 7f 05 fd 03 ec 1f 07 cd e7 65 5d 34 7f e5
       37 -50 127 5 -3 3 -20 31 7 -51 -25 101 93 52 127 -27
000050 a2 fa e3 66 09 ff 81 ec e1 da b2 67 55 59 7f e0
       -94 -6 -29 102 9 -1 -127 -20 -31 -38 -78 103 85 89 127 -32
000060 82 7f 45 3f 63 0c 70 ed a1 c3 6b 7f 71 0f fb 62
       -126 127 69 63 99 12 112 -19 -95 -61 107 127 113 15 -5 98
000070 d0 fb e4 81 e0 d4 a5 22 00 00 55 64 4b c6 81 08
       -48 -5 -28 -127 -32 -44 -91 34 0 0 85 100 75 -58 -127 8
000080 c9 1d db 8f 47 81 a7 01 7f bf 2a 2a 1e 28 e8 5f
       -55 29 -37 -113 71 -127 -89 1 127 -65 42 42 30 40 -24 95
000090 18 15 0d a9 c3 e5 81 08 b3 62 56 2d 4b 7f 26 d5
       24 21 13 -87 -61 -27 -127 8 -77 98 86 45 75 127 38 -43
0000a0 44 f8 10 81 c2 e7 d6 0f ae bd 2e bc 81 8b e1 d7
       68 -8 16 -127 -62 -25 -42 15 -82 -67 46 -68 -127 -117 -31 -41
0000b0 de e8 e3 24 5d 68 40 81 81 d3 c6 54 4d 17 33 78
       -34 -24 -29 36 93 104 64 -127 -127 -45 -58 84 77 23 51 120
0000c0 09 cd 0a 3f 34 d9 7f 43 cb f8 31 ef 23 63 7f 38
       9 -51 10 63 52 -39 127 67 -53 -8 49 -17 35 99 127 56
0000d0 d3 d0 eb 2d 29 dc 7f de 7f 87 91 b3 de 9d 0e d5
       -45 -48 -21 45 41 -36 127 -34 127 -121 -111 -77 -34 -99 14 -43
0000e0 05 8f 7f 60 4d e7 41 72 bb f2 b8 7f 3e 21 cc d6
       5 -113 127 96 77 -25 65 114 -69 -14 -72 127 62 33 -52 -42
0000f0 1a fc ef d3 03 ca 81 f1 e8 33 79 c8 7f d8 1f 3e
       26 -4 -17 -45 3 -54 -127 -15 -24 51 121 -56 127 -40 31 62

model/batch_normalization_17/FusedBatchNormV3;model/depthwise_conv2d_5/depthwise i1 [1, 3, 3, 32]
000000 f9 3d d5 04 ff 0b f2 d0 9a fe 14 78 32 37 4a ae
       -7 61 -43 4 -1 11 -14 -48 -102 -2 20 120 50 55 74 -82
000010 81 81 f5 9c cb c2 0c ff bc ea e8 4d 12 c1 d3 6e
       -127 -127 -11 -100 -53 -62 12 -1 -68 -22 -24 77 18 -63 -45 110
000020 cb 7f d1 11 fa f8 26 5a c5 8a 1c b1 35 7b c5 81
       -53 127 -47 17 -6 -8 38 90 -59 -118 28 -79 53 123 -59 -127
000030 dd a9 17 ae 7f a2 1b da 2a ca e1 7f 3a 5b cd 9f
       -35 -87 23 -82 127 -94 27 -38 42 -54 -31 127 58 91 -51 -97
000040 1d e1 72 f1 27 0c ef 81 a8 7f 16 29 f1 7f 00 e8
       29 -31 114 -15 39 12 -17 -127 -88 127 22 41 -15 127 0 -24
000050 e0 d7 e0 b7 6b 8d 81 a1 1f 7f e5 3e 6a 43 d6 a4
       -32 -41 -32 -73 107 -115 -127 -95 31 127 -27 62 106 67 -42 -92
000060 29 4b 22 17 ff ea cf e9 b3 cc 26 5c 07 79 6e 84
       41 75 34 23 -1 -22 -49 -23 -77 -52 38 92 7 121 110 -124
000070 83 dd ed d1 07 bc 33 13 ca 6d c8 ee f0 36 d4 c9
       -125 -35 -19 -47 7 -68 51 19 -54 109 -56 -18 -16 54 -44 -55
000080 7f 7e 3d 9a 01 d9 7f 10 16 e6 81 7f 7f ed 26 31
       127 126 61 -102 1 -39 127 16 22 -26 -127 127 127 -19 38 49
000090 6f 00 09 b7 d9 81 b7 7f 38 70 14 21 2a 43 34 81
       111 0 9 -73 -39 -127 -73 127 56 112 20 33 42 67 52 -127
0000a0 3f 27 7f 92 81 c9 cc a5 8b f7 3e 4f 0c cb 17 ba
       63 39 127 -110 -127 -55 -52 -91 -117 -9 62 79 12 -53 23 -70
0000b0 65 89 7f 81 e6 c6 b9 33 7f 08 15 06 73 b2 1a e8
       101 -119 127 -127 -26 -58 -71 51 127 8 21 6 115 -78 26 -24
0000c0 eb 51 4d ec 14 d2 f5 12 ac 04 f5 e3 cf 1e 7f 2b
       -21 81 77 -20 20 -46 -11 18 -84 4 -11 -29 -49 30 127 43
0000d0 d6 1a 06 a4 02 ea 37 54 d5 3f 01 fa 0b df 04 d5
       -42 26 6 -92 2 -22 55 84 -43 63 1 -6 11 -33 4 -43
0000e0 cb 45 6f 46 aa 9a 17 b9 81 1c 0a 22 16 2e 4c aa
       -53 69 111 70 -86 -102 23 -71 -127 28 10 34 22 46 76 -86
0000f0 cd 92 04 fb eb 9b ca ff fc 31 7f 3f 7f 81 7f 8c
       -51 -110 4 -5 -21 -101 -54 -1 -4 49 127 63 127 -127 127 -116

model/conv2d_12/Conv2D i1 [8, 1, 1, 32]
000000 97 12 f3 ce 81 f5 f7 2c fb 2c 22 70 e8 e8 fd f8
       -105 18 -13 -50 -127 -11 -9 44 -5 44 34 112 -24 -24 -3 -8
000010 01 01 f9 0d f8 03 f8 05 0e 02 12 0b 41 ff e9 f2
       1 1 -7 13 -8 3 -8 5 14 2 18 11 65 -1 -23 -14
000020 7a f9 33 b6 11 13 03 22 07 4d 0d 7f 1b 1a f3 07
       122 -7 51 -74 17 19 3 34 7 77 13 127 27 26 -13 7
000030 04 cb 7c e9 28 fb f0 1d fa 15 dd 02 e0 f4 2c f2
       4 -53 124 -23 40 -5 -16 29 -6 21 -35 2 -32 -12 44 -14
000040 02 e8 eb 52 f7 ef ca 19 f8 7f e6 04 fe f0 0d 05
       2 -24 -21 82 -9 -17 -54 25 -8 127 -26 4 -2 -16 13 5
000050 fa 38 ef fb df fc 0c f5 0d 0d 1c 06 04 04 e2 f1
       -6 56 -17 -5 -33 -4 12 -11 13 13 28 6 4 4 -30 -15
000060 f8 4f 0e d9 2c 35 dc b3 e5 fd 13 dc 3e 26 b1 f2
       -8 79 14 -39 44 53 -36 -77 -27 -3 19 -36 62 38 -79 -14
000070 f1 c6 fe 24 18 e0 fa 04 1d 3d 0c cf 7f d8 da f8
       -15 -58 -2 36 24 -32 -6 4 29 61 12 -49 127 -40 -38 -8
000080 5a 16 e0 ab de 02 aa 0b f4 0d cc b5 f2 f1 02 05
       90 22 -32 -85 -34 2 -86 11 -12 13 -52 -75 -14 -15 2 5
000090 eb c9 81 f8 74 19 12 10 02 f3 03 07 0c f6 11 09
       -21 -55 -127 -8 116 25 18 16 2 -13 3 7 12 -10 17 9
0000a0 2e 2b c9 7b 41 cb cb f3 fc 8b 48 6a 53 2c 98 f9
       46 43 -55 123 65 -53 -53 -13 -4 -117 72 106 83 44 -104 -7
0000b0 f5 a5 bc 01 d9 1e f9 f8 28 23 44 f0 7f e3 b9 ee
       -11 -91 -68 1 -39 30 -7 -8 40 35 68 -16 127 -29 -71 -18
0000c0 02 06 ed cc 14 01 81 ed 04 ef 02 e5 0b fd 05 00
       2 6 -19 -52 20 1 -127 -19 4 -17 2 -27 11 -3 5 0
0000d0 07 1d 2c fa c7 00 09 e1 05 05 ef f3 ee 26 06 01
       7 29 44 -6 -57 0 9 -31 5 5 -17 -13 -18 38 6 1
0000e0 b7 ff 1b 64 dc 01 a5 f4 0c c7 1f 0b f0 ea f1 0e
       -73 -1 27 100 -36 1 -91 -12 12 -57 31 11 -16 -22 -15 14
0000f0 11 10 57 1a 7f dc 0d d7 be e6 21 2b 05 f0 e9 f0
       17 16 87 26 127 -36 13 -41 -66 -26 33 43 5 -16 -23 -16

model/conv2d_13/Conv2D i1 [48, 1, 1, 8]
000000 ed d9 44 81 b1 85 43 c8 0f 03 c7 2f 24 05 b9 7f
       -19 -39 68 -127 -79 -123 67 -56 15 3 -57 47 36 5 -71 127
000010 81 b5 88 53 f4 ee ce 14 ec 2c 24 81 c1 8f ec 71
       -127 -75 -120 83 -12 -18 -50 20 -20 44 36 -127 -63 -113 -20 113
000020 cd 41 7f 76 02 cd 32 4e d1 03 18 0b bf 25 1b 7f
       -51 65 127 118 2 -51 50 78 -47 3 24 11 -65 37 27 127
000030 23 ea d4 ce 53 7f 11 c5 db 17 27 29 4a 7f 57 40
       35 -22 -44 -50 83 127 17 -59 -37 23 39 41 74 127 87 64
000040 81 e2 a7 c1 ad e5 e0 43 ee af f8 07 81 c7 57 36
       -127 -30 -89 -63 -83 -27 -32 67 -18 -81 -8 7 -127 -57 87 54
000050 b2 b5 c8 c2 7f ec 76 54 ea d8 7f a9 08 6e 52 5d
       -78 -75 -56 -62 127 -20 118 84 -22 -40 127 -87 8 110 82 93
000060 5e c4 c1 e2 ff e6 cb 81 cf 24 62 93 86 42 7f 35
       94 -60 -63 -30 -1 -26 -53 -127 -49 36 98 -109 -122 66 127 53
000070 de cf e6 c0 00 d4 7f 86 ea 12 b5 7f 28 61 f9 88
       -34 -49 -26 -64 0 -44 127 -122 -22 18 -75 127 40 97 -7 -120
000080 72 b2 76 ad 81 9d 4d 93 6e a5 db 0b d4 7f 58 bb
       114 -78 118 -83 -127 -99 77 -109 110 -91 -37 11 -44 127 88 -69
000090 05 e7 3a e9 df 81 e1 ab 20 50 a1 6d 0d 5b 7f eb
       5 -25 58 -23 -33 -127 -31 -85 32 80 -95 109 13 91 127 -21
0000a0 f5 f2 3b d4 d0 dd 81 a2 f2 34 e3 08 52 7f 1a ad
       -11 -14 59 -44 -48 -35 -127 -94 -14 52 -29 8 82 127 26 -83
0000b0 cd e7 fe c1 9e 81 f3 1c ed 2e 2c ed ff bd 81 1d
       -51 -25 -2 -63 -98 -127 -13 28 -19 46 44 -19 -1 -67 -127 29
0000c0 ea 03 dc 18 ea 7f e2 07 49 eb 3e 0f fb 1d 7f fd
       -22 3 -36 24 -22 127 -30 7 73 -21 62 15 -5 29 127 -3
0000d0 81 55 66 bf 35 08 e3 04 f5 3a 5a 1e 07 8a 7f ca
       -127 85 102 -65 53 8 -29 4 -11 58 90 30 7 -118 127 -54
0000e0 0b 02 07 d6 f7 7f d3 2b 7f b3 ac e0 b5 ed 25 93
       11 2 7 -42 -9 127 -45 43 127 -77 -84 -32 -75 -19 37 -109
0000f0 08 d5 81 a5 0e 39 9a 6c 22 2e 9a 81 ce 86 d8 e0
       8 -43 -127 -91 14 57 -102 108 34 46 -102 -127 -50 -122 -40 -32

model/batch_normalization_20/FusedBatchNormV3;model/depthwise_conv2d_6/depthwise;model/conv2d_48/Conv2D i1 [1, 3, 3, 48]
000000 47 1c f5 2d e8 6f 73 e7 fb 0b bc ea 7f b2 f1 2d
       71 28 -11 45 -24 111 115 -25 -5 11 -68 -22 127 -78 -15 45
000010 c5 01 48 7f db f8 06 12 e2 0f 98 0e 3c 55 f8 fa
       -59 1 72 127 -37 -8 6 18 -30 15 -104 14 60 85 -8 -6
000020 dd c3 17 81 9f 02 81 28 b8 d4 1c e1 7f f8 7f f3
       -35 -61 23 -127 -97 2 -127 40 -72 -44 28 -31 127 -8 127 -13
000030 a9 20 d8 3e c0 f8 fe 7f b6 43 81 c6 10 b3 77 3f
       -87 32 -40 62 -64 -8 -2 127 -74 67 -127 -58 16 -77 119 63
000040 4c 81 ea 09 81 10 3a fe df df 81 16 7f 3f 20 7f
       76 -127 -22 9 -127 16 58 -2 -33 -33 -127 22 127 63 32 127
000050 ac 5f 3c 9a 19 0f bb 15 d4 fa 0f b6 e1 81 6c 28
       -84 95 60 -102 25 15 -69 21 -44 -6 15 -74 -31 -127 108 40
000060 c3 a3 a9 31 ae f6 d8 ab c6 37 e6 f7 0a 0a 98 63
       -61 -93 -87 49 -82 -10 -40 -85 -58 55 -26 -9 10 10 -104 99
000070 de d2 e0 45 f4 d8 2e 19 76 fe e4 12 71 4e ee e5
       -34 -46 -32 69 -12 -40 46 25 118 -2 -28 18 113 78 -18 -27
000080 21 d9 48 b7 32 c8 d0 e2 a4 f9 0b 45 42 a1 31 03
       33 -39 72 -73 50 -56 -48 -30 -92 -7 11 69 66 -95 49 3
000090 b1 bd 0e 1b 81 03 7f 01 18 7f a5 81 ff 7f c7 0a
       -79 -67 14 27 -127 3 127 1 24 127 -91 -127 -1 127 -57 10
0000a0 c6 d1 b1 26 b3 02 63 e5 1b db cb 0b 3f 32 a0 10
       -58 -47 -79 38 -77 2 99 -27 27 -37 -53 11 63 50 -96 16
0000b0 a0 4a 50 35 f3 60 ae 7f 33 7f 81 62 c5 a0 27 a4
       -96 74 80 53 -13 96 -82 127 51 127 -127 98 -59 -96 39 -92
0000c0 b6 1c c8 7f 8f 2e 21 e6 3c 50 d3 94 46 f2 92 58
       -74 28 -56 127 -113 46 33 -26 60 80 -45 -108 70 -14 -110 88
0000d0 ca d5 2a fe 24 f0 71 f7 ff 0b 0a 00 23 7f 40 d9
       -54 -43 42 -2 36 -16 113 -9 -1 11 10 0 35 127 64 -39
0000e0 d7 ee 5a ee 00 21 b6 32 de d4 90 7f b0 a5 31 d6
       -41 -18 90 -18 0 33 -74 50 -34 -44 -112 127 -80 -91 49 -42
0000f0 81 13 f9 88 d5 cf 6d 6d 81 24 b5 cf 91 ee ba 0a
       -127 19 -7 -120 -43 -49 109 109 -127 36 -75 -49 -111 -18 -70 10

model/conv2d_14/Conv2D i1 [8, 1, 1, 48]
000000 e8 1a ef ae d2 3c 1f 01 a7 0e 25 e8 23 dd ea 49
       -24 26 -17 -82 -46 60 31 1 -89 14 37 -24 35 -35 -22 73
000010 f1 fb bb 04 1b 42 d4 45 12 d6 0f 39 35 5c 18 0f
       -15 -5 -69 4 27 66 -44 69 18 -42 15 57 53 92 24 15
000020 f8 cf 26 22 13 f2 fe 96 7f ec ff 06 e5 d4 1a fa
       -8 -49 38 34 19 -14 -2 -106 127 -20 -1 6 -27 -44 26 -6
000030 36 0d e2 b3 d7 1d cc 9d ae dc 22 2d ef d5 32 49
       54 13 -30 -77 -41 29 -52 -99 -82 -36 34 45 -17 -43 50 73
000040 b3 f0 c0 39 86 c6 14 a8 cb c3 d7 d4 fd 07 0e 7b
       -77 -16 -64 57 -122 -58 20 -88 -53 -61 -41 -44 -3 7 14 123
000050 0c a4 14 04 ee 34 41 2e e8 81 ef 0e 30 20 fc e8
       12 -92 20 4 -18 52 65 46 -24 -127 -17 14 48 32 -4 -24
000060 f9 eb e1 2b e4 5a 11 19 58 b7 1b fe f0 16 fd cc
       -7 -21 -31 43 -28 90 17 25 88 -73 27 -2 -16 22 -3 -52
000070 ea 0f 14 fa 3d 1b d4 18 f2 cf 09 c9 14 ce 3c 12
       -22 15 20 -6 61 27 -44 24 -14 -49 9 -55 20 -50 60 18
000080 0e 39 f8 e3 40 bd 00 d7 ff 3a f4 81 0d 00 e3 19
       14 57 -8 -29 64 -67 0 -41 -1 58 -12 -127 13 0 -29 25
000090 e8 fc ee 38 0d ec 1e 4a 4b f4 ff e9 da bf f3 f7
       -24 -4 -18 56 13 -20 30 74 75 -12 -1 -23 -38 -65 -13 -9
0000a0 01 e1 3f fd e5 3d 60 81 3b 20 ca 18 e7 f2 ce a0
       1 -31 63 -3 -27 61 96 -127 59 32 -54 24 -25 -14 -50 -96
0000b0 1a 06 03 ec e2 f3 37 46 09 1c 24 17 3a ed 56 ee
       26 6 3 -20 -30 -13 55 70 9 28 36 23 58 -19 86 -18
0000c0 d7 04 0e e2 11 22 fc e7 fd 4d e2 da 20 56 d8 f6
       -41 4 14 -30 17 34 -4 -25 -3 77 -30 -38 32 86 -40 -10
0000d0 f4 0e fb e0 e8 07 1f 42 22 09 ee 50 26 08 34 18
       -12 14 -5 -32 -24 7 31 66 34 9 -18 80 38 8 52 24
0000e0 0d 6c 7f 1c d5 16 21 10 ee f7 bc 34 d9 12 f9 21
       13 108 127 28 -43 22 33 16 -18 -9 -68 52 -39 18 -7 33
0000f0 ec fe e6 e9 a6 fc b3 f9 81 ee e4 e8 ed eb f7 e8
       -20 -2 -26 -23 -90 -4 -77 -7 -127 -18 -28 -24 -19 -21 -9 -24

model/conv2d_15/Conv2D i1 [48, 1, 1, 8]
000000 53 06 46 bf 52 77 bc 81 e5 c4 1e ba ed b0 25 81
       83 6 70 -65 82 119 -68 -127 -27 -60 30 -70 -19 -80 37 -127
000010 65 85 34 a4 c9 7f bf a6 17 bc da e9 7f ed 83 f1
       101 -123 52 -92 -55 127 -65 -90 23 -68 -38 -23 127 -19 -125 -15
000020 02 6d aa c7 7f 21 bf 4a b8 ac 33 f8 81 b7 21 4a
       2 109 -86 -57 127 33 -65 74 -72 -84 51 -8 -127 -73 33 74
000030 38 df e8 02 dd 72 3c 7f 1a 7f 4e 9b 81 6f fd bf
       56 -33 -24 2 -35 114 60 127 26 127 78 -101 -127 111 -3 -65
000040 d5 c5 0e 18 c8 81 07 08 d8 e2 32 f0 d6 81 bf 0a
       -43 -59 14 24 -56 -127 7 8 -40 -30 50 -16 -42 -127 -65 10
000050 d2 24 dc 11 f2 b9 7f 49 08 7f de 2a c1 26 6b 17
       -46 36 -36 17 -14 -71 127 73 8 127 -34 42 -63 38 107 23
000060 db 2f 81 20 ec 86 d4 fe 60 f5 c2 81 a6 6f b1 07
       -37 47 -127 32 -20 -122 -44 -2 96 -11 -62 -127 -90 111 -79 7
000070 13 f2 bb 30 0f 08 f4 81 15 d4 41 bc 55 81 0f 94
       19 -14 -69 48 15 8 -12 -127 21 -44 65 -68 85 -127 15 -108
000080 e7 0c 30 16 01 7f 14 c8 e4 7f ac d9 e0 de bc b6
       -25 12 48 22 1 127 20 -56 -28 127 -84 -39 -32 -34 -68 -74
000090 c4 45 a7 3f aa 81 90 2d df 7f c4 f3 f6 c5 20 9a
       -60 69 -89 63 -86 -127 -112 45 -33 127 -60 -13 -10 -59 32 -102
0000a0 b9 81 5a a0 3a f8 69 0c f1 3a f9 42 11 eb 81 d1
       -71 -127 90 -96 58 -8 105 12 -15 58 -7 66 17 -21 -127 -47
0000b0 11 2d d1 c7 05 c3 09 7f 09 fc 09 15 ec 7f 0f a0
       17 45 -47 -57 5 -61 9 127 9 -4 9 21 -20 127 15 -96
0000c0 2d 16 44 35 55 d8 e6 81 0d f7 c3 09 0d c7 e0 7f
       45 22 68 53 85 -40 -26 -127 13 -9 -61 9 13 -57 -32 127
0000d0 ed 2c d4 e4 81 10 1b 54 de aa e3 b5 ac 8e 2b 81
       -19 44 -44 -28 -127 16 27 84 -34 -86 -29 -75 -84 -114 43 -127
0000e0 62 12 4a a4 30 1e 81 b5 27 fc 7f d1 86 54 cc ce
       98 18 74 -92 48 30 -127 -75 39 -4 127 -47 -122 84 -52 -50
0000f0 12 60 4b 7f e2 97 0c 45 d6 37 7f e3 44 22 56 f9
       18 96 75 127 -30 -105 12 69 -42 55 127 -29 68 34 86 -7

model/batch_normalization_23/FusedBatchNormV3;model/depthwise_conv2d_7/depthwise;model/conv2d_48/Conv2D i1 [1, 3, 3, 48]
000000 ec 24 ef cf 61 be 8f 30 bd fb df 11 2f 33 7f 0e
       -20 36 -17 -49 97 -66 -113 48 -67 -5 -33 17 47 51 127 14
000010 06 5b ef 8f e1 00 3e 36 7f 09 7f 81 4e cc 81 0b
       6 91 -17 -113 -31 0 62 54 127 9 127 -127 78 -52 -127 11
000020 0d e6 b6 46 00 f5 02 d7 06 1f 81 ef 5e 15 14 28
       13 -26 -74 70 0 -11 2 -41 6 31 -127 -17 94 21 20 40
000030 1b 72 9a ef 81 f9 9e c8 e7 14 3e 05 36 2a bb b4
       27 114 -102 -17 -127 -7 -98 -56 -25 20 62 5 54 42 -69 -76
000040 03 ad 59 12 af 64 a3 7f 42 36 6d d2 2b bc c7 2a
       3 -83 89 18 -81 100 -93 127 66 54 109 -46 43 -68 -57 42
000050 2d 7f 53 e8 17 26 7f a7 81 e3 d5 39 7f 15 19 ec
       45 127 83 -24 23 38 127 -89 -127 -29 -43 57 127 21 25 -20
000060 06 29 81 28 11 07 d9 f1 7f ea 29 50 4d 08 24 cb
       6 41 -127 40 17 7 -39 -15 127 -22 41 80 77 8 36 -53
000070 81 e3 27 ac ca 9c f6 11 18 fa 06 01 c9 0e 9c e1
       -127 -29 39 -84 -54 -100 -10 17 24 -6 6 1 -55 14 -100 -31
000080 94 e3 0b 1e a9 2d ba 11 ee 1f ac 18 02 07 f7 0c
       -108 -29 11 30 -87 45 -70 17 -18 31 -84 24 2 7 -9 12
000090 e2 d3 2f 7f 82 ef 56 cc 8e df 69 a3 07 e9 f3 36
       -30 -45 47 127 -126 -17 86 -52 -114 -33 105 -93 7 -23 -13 54
0000a0 41 cd 08 8c fd dc fe 4a ef 7f c4 58 81 28 3f f6
       65 -51 8 -116 -3 -36 -2 74 -17 127 -60 88 -127 40 63 -10
0000b0 f4 e9 00 35 81 b8 0f e3 5e d9 1b 24 52 c6 e5 d8
       -12 -23 0 53 -127 -72 15 -29 94 -39 27 36 82 -58 -27 -40
0000c0 7f 86 11 f7 9e 0f 81 bd b6 10 eb a5 d6 eb ee 84
       127 -122 17 -9 -98 15 -127 -67 -74 16 -21 -91 -42 -21 -18 -124
0000d0 c2 08 7f 7d e4 1a 88 6a 1a 38 a9 1d 66 1d 36 c9
       -62 8 127 125 -28 26 -120 106 26 56 -87 29 102 29 54 -55
0000e0 db ad 03 dc 02 ce fa a1 6a d6 82 e6 ef df e0 d7
       -37 -83 3 -36 2 -50 -6 -95 106 -42 -126 -26 -17 -33 -32 -41
0000f0 3d 90 06 bd 4b df 2d c5 0b 7f b8 bf 49 81 5c 88
       61 -112 6 -67 75 -33 45 -59 11 127 -72 -65 73 -127 92 -120

model/conv2d_16/Conv2D i1 [8, 1, 1, 48]
000000 81 e3 5a 28 03 d2 96 09 24 b5 0b 1d 12 24 e2 13
       -127 -29 90 40 3 -46 -106 9 36 -75 11 29 18 36 -30 19
000010 3b ff 32 b9 ce 27 03 59 c6 14 13 10 ec e7 f9 0e
       59 -1 50 -71 -50 39 3 89 -58 20 19 16 -20 -25 -7 14
000020 dd ad f0 e1 d8 24 ff 08 0a 1e c3 d8 f9 11 2d 0b
       -35 -83 -16 -31 -40 36 -1 8 10 30 -61 -40 -7 17 45 11
000030 f8 0f 08 5c e6 2d f9 c9 f6 f1 81 26 2d 18 bf 02
       -8 15 8 92 -26 45 -7 -55 -10 -15 -127 38 45 24 -65 2
000040 c0 d8 07 38 0d 20 c5 51 cd cd 38 4c 8d 45 07 b9
       -64 -40 7 56 13 32 -59 81 -51 -51 56 76 -115 69 7 -71
000050 78 00 df 29 52 0f ca 18 13 2a ec cc 47 e9 54 2f
       120 0 -33 41 82 15 -54 24 19 42 -20 -52 71 -23 84 47
000060 28 25 f4 85 17 9d 2d c2 1d e6 08 de b3 15 0e f3
       40 37 -12 -123 23 -99 45 -62 29 -26 8 -34 -77 21 14 -13
000070 50 e9 81 a2 df 3a 2f b4 05 f5 eb b0 ea e4 22 f9
       80 -23 -127 -94 -33 58 47 -76 5 -11 -21 -80 -22 -28 34 -7
000080 e0 40 61 2d eb 21 da 07 e3 fa e5 c4 e2 12 eb 0f
       -32 64 97 45 -21 33 -38 7 -29 -6 -27 -60 -30 18 -21 15
000090 f4 e1 eb 29 cd 17 05 04 ea 81 df d1 e4 2b 27 cb
       -12 -31 -21 41 -51 23 5 4 -22 -127 -33 -47 -28 43 39 -53
0000a0 f4 42 1f 1d b1 c1 13 92 32 61 dc fa d0 10 15 2e
       -12 66 31 29 -79 -63 19 -110 50 97 -36 -6 -48 16 21 46
0000b0 cf ca ef f3 20 24 cb b3 13 d1 2d dd c6 fb 63 be
       -49 -54 -17 -13 32 36 -53 -77 19 -47 45 -35 -58 -5 99 -66
0000c0 29 24 db 38 dd 27 04 2e 0a f1 ae f9 05 b8 f4 fd
       41 36 -37 56 -35 39 4 46 10 -15 -82 -7 5 -72 -12 -3
0000d0 ca cc f5 34 2c 42 e8 bd 2a f4 eb 2f 28 10 ea 2a
       -54 -52 -11 52 44 66 -24 -67 42 -12 -21 47 40 16 -22 42
0000e0 24 f6 12 e9 08 81 06 18 72 e4 16 e0 cc 25 18 24
       36 -10 18 -23 8 -127 6 24 114 -28 22 -32 -52 37 24 36
0000f0 ef d2 e4 07 cf 0b 17 1d f1 fe 13 e7 11 c1 dd cd
       -17 -46 -28 7 -49 11 23 29 -15 -2 19 -25 17 -63 -35 -51

model/conv2d_17/Conv2D i1 [48, 1, 1, 8]
000000 2c 4d 4e 81 13 cd b5 b0 2e 05 7f dd 68 27 f2 92
       44 77 78 -127 19 -51 -75 -80 46 5 127 -35 104 39 -14 -110
000010 7e 16 16 17 2f 7f f7 96 06 d8 4d 2c f9 7f ec e4
       126 22 22 23 47 127 -9 -106 6 -40 77 44 -7 127 -20 -28
000020 4d 7f fc f0 1f 76 09 59 86 35 d7 13 7f 15 fc c6
       77 127 -4 -16 31 118 9 89 -122 53 -41 19 127 21 -4 -58
000030 5a 7a 0c 04 e7 7f ff 4f 13 2f 8e a7 e7 68 61 7f
       90 122 12 4 -25 127 -1 79 19 47 -114 -89 -25 104 97 127
000040 19 41 52 81 f2 fa f4 b1 0e 66 a1 ea c7 d4 81 32
       25 65 82 -127 -14 -6 -12 -79 14 102 -95 -22 -57 -44 -127 50
000050 be 26 7f 5b 2e a7 d4 a9 e5 ee 30 20 d7 bb e4 81
       -66 38 127 91 46 -89 -44 -87 -27 -18 48 32 -41 -69 -28 -127
000060 d0 81 20 03 25 0d 4f d1 06 02 5d b8 68 cb 7f 0d
       -48 -127 32 3 37 13 79 -47 6 2 93 -72 104 -53 127 13
000070 e7 7f 39 38 e0 30 0d 60 36 0c 00 06 15 7f 05 df
       -25 127 57 56 -32 48 13 96 54 12 0 6 21 127 5 -33
000080 ec e2 2c 37 11 03 7f 3a 39 6d 5f 7f 8f d4 1e 4c
       -20 -30 44 55 17 3 127 58 57 109 95 127 -113 -44 30 76
000090 17 17 da fc 7f f9 ad 4b f1 cc 45 26 ef b2 ce 81
       23 23 -38 -4 127 -7 -83 75 -15 -52 69 38 -17 -78 -50 -127
0000a0 02 f4 9f 34 81 28 31 07 f8 1c 20 ce 81 da 61 e9
       2 -12 -97 52 -127 40 49 7 -8 28 32 -50 -127 -38 97 -23
0000b0 eb ff a8 18 b4 10 81 b7 ff 03 7f 1f 1e b3 ed ac
       -21 -1 -88 24 -76 16 -127 -73 -1 3 127 31 30 -77 -19 -84
0000c0 05 53 dd ed 15 45 fa 7f ce 7f da e9 52 dd 47 b0
       5 83 -35 -19 21 69 -6 127 -50 127 -38 -23 82 -35 71 -80
0000d0 03 93 81 a2 20 54 26 31 42 26 33 0b d2 45 0e 81
       3 -109 -127 -94 32 84 38 49 66 38 51 11 -46 69 14 -127
0000e0 00 ea 20 23 f4 c4 85 81 2c d1 7f 15 43 0e 26 fb
       0 -22 32 35 -12 -60 -123 -127 44 -47 127 21 67 14 38 -5
0000f0 49 7f 24 df fd cc d1 13 ff e6 55 35 fe 7f 5a ad
       73 127 36 -33 -3 -52 -47 19 -1 -26 85 53 -2 127 90 -83

model/batch_normalization_26/FusedBatchNormV3;model/depthwise_conv2d_8/depthwise;model/conv2d_48/Conv2D i1 [1, 3, 3, 48]
000000 05 0b e4 3d f1 00 fe 0c f1 f5 06 06 0b fb fc 04
       5 11 -28 61 -15 0 -2 12 -15 -11 6 6 11 -5 -4 4
000010 06 05 fd 04 03 ec fc 0b 13 02 ff 19 0c fc fb f2
       6 5 -3 4 3 -20 -4 11 19 2 -1 25 12 -4 -5 -14
000020 08 fa 0c 03 04 fb 12 02 fd 04 04 01 f2 f9 02 fa
       8 -6 12 3 4 -5 18 2 -3 4 4 1 -14 -7 2 -6
000030 ef 0c ea 7f fd 02 16 13 0a ef 14 f7 10 04 fa fe
       -17 12 -22 127 -3 2 22 19 10 -17 20 -9 16 4 -6 -2
000040 c0 f6 00 01 f6 fd 0c f2 fb 0e f5 05 cc 0a f5 c9
       -64 -10 0 1 -10 -3 12 -14 -5 14 -11 5 -52 10 -11 -55
000050 c2 fa f9 ff e1 fa 02 05 f7 f1 46 fe de f7 04 03
       -62 -6 -7 -1 -31 -6 2 5 -9 -15 70 -2 -34 -9 4 3
000060 f6 fc e8 40 f1 fe fb f7 02 fc 0b fa 07 fc 02 f8
       -10 -4 -24 64 -15 -2 -5 -9 2 -4 11 -6 7 -4 2 -8
000070 fc 05 fd 00 09 fc fe f6 03 fb fa 07 eb 12 f7 f0
       -4 5 -3 0 9 -4 -2 -10 3 -5 -6 7 -21 18 -9 -16
000080 fa 01 fa 03 fb fc 05 07 fe 02 f5 ff fc f8 02 ff
       -6 1 -6 3 -5 -4 5 7 -2 2 -11 -1 -4 -8 2 -1
000090 1b ee 91 d4 e9 05 fd eb 17 f5 17 eb 14 0b f0 e6
       27 -18 -111 -44 -23 5 -3 -21 23 -11 23 -21 20 11 -16 -26
0000a0 d2 1e fc ea f9 9a 00 14 c7 e9 ff 60 f0 f6 0a 0a
       -46 30 -4 -22 -7 -102 0 20 -57 -23 -1 96 -16 -10 10 10
0000b0 3e 03 7f f7 d0 30 81 8a 0d da 7f ff 06 7f f7 05
       62 3 127 -9 -48 48 -127 -118 13 -38 127 -1 6 127 -9 5
0000c0 7f 81 fc 42 e6 7f 7f 7f eb b8 f9 81 81 7f 7f 7f
       127 -127 -4 66 -26 127 127 127 -21 -72 -7 -127 -127 127 127 127
0000d0 81 81 ed 7f 7f 2e 7f 12 81 7f e0 f2 84 36 7f 7f
       -127 -127 -19 127 127 46 127 18 -127 127 -32 -14 -124 54 127 127
0000e0 33 7f 94 81 7f 30 b9 ed 81 7f 3c 7f d0 b8 81 5d
       51 127 -108 -127 127 48 -71 -19 -127 127 60 127 -48 -72 -127 93
0000f0 fa 00 ee a2 7f 0c 02 20 fb 7f f0 12 b6 01 e5 0d
       -6 0 -18 -94 127 12 2 32 -5 127 -16 18 -74 1 -27 13

model/conv2d_18/Conv2D i1 [16, 1, 1, 48]
000000 26 04 ff 04 d7 2b ed 31 e5 2f e5 ec ff 47 e9 e0
       38 4 -1 4 -41 43 -19 49 -27 47 -27 -20 -1 71 -23 -32
000010 1b db fc e2 39 14 3a eb 00 f1 fd 7f 13 d2 1c ee
       27 -37 -4 -30 57 20 58 -21 0 -15 -3 127 19 -46 28 -18
000020 16 40 30 27 ed 16 03 0a 03 06 d4 fb 1c 1f 14 cb
       22 64 48 39 -19 22 3 10 3 6 -44 -5 28 31 20 -53
000030 d7 22 fd da 05 7f f8 9f eb fb 30 fc 42 3a bc 20
       -41 34 -3 -38 5 127 -8 -97 -21 -5 48 -4 66 58 -68 32
000040 09 89 dd a5 1f 36 81 12 2d 19 b3 0b 3e 13 e9 1c
       9 -119 -35 -91 31 54 -127 18 45 25 -77 11 62 19 -23 28
000050 d8 b8 a1 20 b2 e8 ba 04 71 33 22 38 fb 0e 36 4c
       -40 -72 -95 32 -78 -24 -70 4 113 51 34 56 -5 14 54 76
000060 0a 38 e1 e8 12 88 c4 fc 20 ca 15 08 01 58 14 23
       10 56 -31 -24 18 -120 -60 -4 32 -54 21 8 1 88 20 35
000070 d3 f8 f2 d6 32 e6 21 e7 f3 ee d0 0b e5 f8 3a e7
       -45 -8 -14 -42 50 -26 33 -25 -13 -18 -48 11 -27 -8 58 -25
000080 ea 10 04 b6 fc f4 f2 c7 34 4a f4 81 01 09 82 d2
       -22 16 4 -74 -4 -12 -14 -57 52 74 -12 -127 1 9 -126 -46
000090 cd ea 03 11 12 cc ea 05 41 f1 e1 f3 14 17 fd 81
       -51 -22 3 17 18 -52 -22 5 65 -15 -31 -13 20 23 -3 -127
0000a0 eb 1a 12 f2 22 18 ed 06 ef 0d 40 e3 04 f5 e9 05
       -21 26 18 -14 34 24 -19 6 -17 13 64 -29 4 -11 -23 5
0000b0 dd ff fa 5d 00 da 3f eb ac 07 09 e6 02 d0 c4 fd
       -35 -1 -6 93 0 -38 63 -21 -84 7 9 -26 2 -48 -60 -3
0000c0 cd 21 ed e0 f4 32 d8 03 dd f1 d8 c4 17 c8 bf 9c
       -51 33 -19 -32 -12 50 -40 3 -35 -15 -40 -60 23 -56 -65 -100
0000d0 d2 cd 0a d9 18 e4 eb ec f6 2c ab 16 e4 19 c5 9d
       -46 -51 10 -39 24 -28 -21 -20 -10 44 -85 22 -28 25 -59 -99
0000e0 e5 81 f3 03 f0 dc 49 f5 18 f4 1f 13 0a c5 14 f3
       -27 -127 -13 3 -16 -36 73 -11 24 -12 31 19 10 -59 20 -13
0000f0 04 0d 07 cc fb d5 e9 0f 07 1a 03 08 fd f6 02 81
       4 13 7 -52 -5 -43 -23 15 7 26 3 8 -3 -10 2 -127

model/conv2d_19/Conv2D i1 [96, 1, 1, 16]
000000 af d0 17 c8 05 e0 25 81 2f 02 d6 b4 ab d1 3a dd
       -81 -48 23 -56 5 -32 37 -127 47 2 -42 -76 -85 -47 58 -35
000010 f5 81 0d 2a e3 6b e2 d4 e0 df e1 c2 ba 1d 9b d3
       -11 -127 13 42 -29 107 -30 -44 -32 -33 -31 -62 -70 29 -101 -45
000020 11 21 49 ed 21 3d 81 e6 4f 1b ee f3 21 15 14 aa
       17 33 73 -19 33 61 -127 -26 79 27 -18 -13 33 21 20 -86
000030 d5 c1 f2 2c d8 81 40 c3 36 1a e3 04 d3 f1 ee f3
       -43 -63 -14 44 -40 -127 64 -61 54 26 -29 4 -45 -15 -18 -13
000040 ec b3 cc 20 d9 51 29 30 ec 55 ff 0b 7f 50 bf d9
       -20 -77 -52 32 -39 81 41 48 -20 85 -1 11 127 80 -65 -39
000050 64 f5 d0 f6 5e 0b dd b9 ef ae b6 57 ed 0c 81 b7
       100 -11 -48 -10 94 11 -35 -71 -17 -82 -74 87 -19 12 -127 -73
000060 1f f3 f3 db d5 ab bd 19 f1 00 61 f7 f7 37 0f 7f
       31 -13 -13 -37 -43 -85 -67 25 -15 0 97 -9 -9 55 15 127
000070 de c9 1e 7f dc a4 37 38 21 b0 03 e5 e5 ea a2 b9
       -34 -55 30 127 -36 -92 55 56 33 -80 3 -27 -27 -22 -94 -71
000080 69 84 7f f5 ba e8 cc 51 f7 16 e2 f2 0f ca 04 08
       105 -124 127 -11 -70 -24 -52 81 -9 22 -30 -14 15 -54 4 8
000090 35 05 97 21 ef be 51 c4 2a 81 1e 2f ca d5 2d 0e
       53 5 -105 33 -17 -66 81 -60 42 -127 30 47 -54 -43 45 14
0000a0 a9 2d 29 41 f2 09 7f 43 28 d9 cc 26 c7 e6 1e c3
       -87 45 41 65 -14 9 127 67 40 -39 -52 38 -57 -26 30 -61
0000b0 b9 3c 13 13 d3 59 7f e1 22 0a ec 07 17 1a 44 16
       -71 60 19 19 -45 89 127 -31 34 10 -20 7 23 26 68 22
0000c0 ee 20 d6 df d9 21 06 e1 5a 54 ef c6 db c5 7f b2
       -18 32 -42 -33 -39 33 6 -31 90 84 -17 -58 -37 -59 127 -78
0000d0 ec 7f f2 2a e8 f1 52 de 15 3b 0d a0 79 e4 f1 1e
       -20 127 -14 42 -24 -15 82 -34 21 59 13 -96 121 -28 -15 30
0000e0 07 0a 03 63 e5 ee 2d df 5f 81 59 c3 e3 f1 df e6
       7 10 3 99 -27 -18 45 -33 95 -127 89 -61 -29 -15 -33 -26
0000f0 d8 4e 58 f0 92 81 33 e3 67 54 f7 13 33 3c 73 a6
       -40 78 88 -16 -110 -127 51 -29 103 84 -9 19 51 60 115 -90

model/batch_normalization_29/FusedBatchNormV3;model/depthwise_conv2d_9/depthwise;model/conv2d_51/Conv2D i1 [1, 3, 3, 96]
000000 de 0d df 83 ae 19 b0 cc ec 15 21 fb 0e 24 e1 cc
       -34 13 -33 -125 -82 25 -80 -52 -20 21 33 -5 14 36 -31 -52
000010 62 e6 04 10 11 3d 0a 96 fa 2a fc 9f 06 b1 2b 0d
       98 -26 4 16 17 61 10 -106 -6 42 -4 -97 6 -79 43 13
000020 d0 22 0a c1 44 09 36 09 cc 02 d4 03 ef ff 09 c6
       -48 34 10 -63 68 9 54 9 -52 2 -44 3 -17 -1 9 -58
000030 ef 13 ef b8 21 ae 02 1f f0 f8 f0 5d e4 fa 18 1a
       -17 19 -17 -72 33 -82 2 31 -16 -8 -16 93 -28 -6 24 26
000040 7f f6 a1 14 fe d9 a5 00 06 bd fb de e0 81 cc 13
       127 -10 -95 20 -2 -39 -91 0 6 -67 -5 -34 -32 -127 -52 19
000050 05 f2 3f 25 0e de 2f 00 0d 9c fd f1 3a 36 b5 ea
       5 -14 63 37 14 -34 47 0 13 -100 -3 -15 58 54 -75 -22
000060 81 81 7f dc ea c2 b6 04 10 1b 7f 81 09 e2 b6 94
       -127 -127 127 -36 -22 -62 -74 4 16 27 127 -127 9 -30 -74 -108
000070 81 02 7f ba da 14 f4 8e b5 33 f2 95 81 81 39 05
       -127 2 127 -70 -38 20 -12 -114 -75 51 -14 -107 -127 -127 57 5
000080 f2 3b 81 f0 14 d1 e2 7f af e0 ae d5 7f e9 89 7f
       -14 59 -127 -16 20 -47 -30 127 -81 -32 -82 -43 127 -23 -119 127
000090 2c db bd c6 e9 f7 59 f2 fc 00 7f 4b 34 27 cc e5
       44 -37 -67 -58 -23 -9 89 -14 -4 0 127 75 52 39 -52 -27
0000a0 12 df 36 bb d7 ec d7 16 f1 7f a0 e3 93 98 e4 7f
       18 -33 54 -69 -41 -20 -41 22 -15 127 -96 -29 -109 -104 -28 127
0000b0 7f fe 7f 92 10 eb 81 86 ea 81 e2 e7 56 81 7f f6
       127 -2 127 -110 16 -21 -127 -122 -22 -127 -30 -25 86 -127 127 -10
0000c0 be ab 1e 7f 2e e7 03 eb 13 fb 28 23 4c 2b 08 81
       -66 -85 30 127 46 -25 3 -21 19 -5 40 35 76 43 8 -127
0000d0 f5 1d 1b 7f 40 e8 4e e5 4c 7f e1 29 5e d4 c3 29
       -11 29 27 127 64 -24 78 -27 76 127 -31 41 94 -44 -61 41
0000e0 35 d2 02 0c a1 4d 2a a5 bc 13 0a e6 ab be 7f 1e
       53 -46 2 12 -95 77 42 -91 -68 19 10 -26 -85 -66 127 30
0000f0 ce ea b1 ea c1 cd 00 13 1f 14 86 7f 17 00 c6 de
       -50 -22 -79 -22 -63 -51 0 19 31 20 -122 127 23 0 -58 -34

model/conv2d_20/Conv2D i1 [16, 1, 1, 96]
000000 26 10 ef dd ca 0a d0 0a 2a 41 34 ee 22 4e 28 f3
       38 16 -17 -35 -54 10 -48 10 42 65 52 -18 34 78 40 -13
000010 2f be d1 14 2d 04 04 01 fd ea ee 1c 29 1f cc c4
       47 -66 -47 20 45 4 4 1 -3 -22 -18 28 41 31 -52 -60
000020 d6 ec 00 d1 15 f4 31 c2 f2 49 d5 42 29 01 d8 ee
       -42 -20 0 -47 21 -12 49 -62 -14 73 -43 66 41 1 -40 -18
000030 1d fe f9 e9 f4 e0 66 df 07 12 9f 0d ed 81 fd b1
       29 -2 -7 -23 -12 -32 102 -33 7 18 -97 13 -19 -127 -3 -79
000040 be da d4 21 f8 fc 0c f4 58 f9 df 15 16 2b 2c 0c
       -66 -38 -44 33 -8 -4 12 -12 88 -7 -33 21 22 43 44 12
000050 05 fa 97 ec c8 0b 00 29 ea 41 a4 e7 e9 45 1a 2b
       5 -6 -105 -20 -56 11 0 41 -22 65 -92 -25 -23 69 26 43
000060 1c 4c 25 fc fd dc 12 3b 1c 08 30 2d 05 f0 14 13
       28 76 37 -4 -3 -36 18 59 28 8 48 45 5 -16 20 19
000070 30 ee c9 df 1d 08 ce f5 02 42 13 dc 00 fc 06 dc
       48 -18 -55 -33 29 8 -50 -11 2 66 19 -36 0 -4 6 -36
000080 e2 4a 07 1f f9 d4 df e6 27 08 4d 03 17 42 10 14
       -30 74 7 31 -7 -44 -33 -26 39 8 77 3 23 66 16 20
000090 bd 0f 18 0f f4 57 08 fa 81 d4 fa 18 f6 f8 16 41
       -67 15 24 15 -12 87 8 -6 -127 -44 -6 24 -10 -8 22 65
0000a0 19 f7 15 00 43 e8 38 e7 f4 12 ca ed 2b 22 d2 f6
       25 -9 21 0 67 -24 56 -25 -12 18 -54 -19 43 34 -46 -10
0000b0 d9 e6 1a e5 f4 19 f0 09 12 ce 10 cf 00 ce 2d 34
       -39 -26 26 -27 -12 25 -16 9 18 -50 16 -49 0 -50 45 52
0000c0 11 ee 69 30 0a 22 21 ca fa e4 01 1c d6 a3 27 e1
       17 -18 105 48 10 34 33 -54 -6 -28 1 28 -42 -93 39 -31
0000d0 ec d0 cb d4 0a e1 f1 e3 08 09 dd aa 1c 09 ee 2f
       -20 -48 -53 -44 10 -31 -15 -29 8 9 -35 -86 28 9 -18 47
0000e0 40 ed 32 d8 e9 b2 60 e4 fe 7f d4 24 07 07 fe df
       64 -19 50 -40 -23 -78 96 -28 -2 127 -44 36 7 7 -2 -33
0000f0 f4 1e dd f5 df c8 54 da df f4 e6 d5 f6 3b bb d2
       -12 30 -35 -11 -33 -56 84 -38 -33 -12 -26 -43 -10 59 -69 -46

model/conv2d_21/Conv2D i1 [96, 1, 1, 16]
000000 7f 9f 4c 89 43 7c 5c 02 25 49 d4 40 f4 50 58 29
       127 -97 76 -119 67 124 92 2 37 73 -44 64 -12 80 88 41
000010 a2 7f 06 1a c6 de 2a e7 be 6f db e7 45 0d 1c e6
       -94 127 6 26 -58 -34 42 -25 -66 111 -37 -25 69 13 28 -26
000020 4a 04 bb ef e5 81 04 df be b7 cd 27 14 f0 20 0b
       74 4 -69 -17 -27 -127 4 -33 -66 -73 -51 39 20 -16 32 11
000030 71 a9 f7 d6 25 f2 d1 d5 0a 81 3c 3f 3e 56 12 38
       113 -87 -9 -42 37 -14 -47 -43 10 -127 60 63 62 86 18 56
000040 3c 3b 3f 07 99 ad 2f ea de 77 7f e9 38 db 59 c6
       60 59 63 7 -103 -83 47 -22 -34 119 127 -23 56 -37 89 -58
000050 d6 05 df 0f 31 7f e7 4f 09 e9 ed f2 e8 30 a5 37
       -42 5 -33 15 49 127 -25 79 9 -23 -19 -14 -24 48 -91 55
000060 4d e7 e4 eb db 6b 38 81 3a e8 36 2c 13 0b a6 f5
       77 -25 -28 -21 -37 107 56 -127 58 -24 54 44 19 11 -90 -11
000070 d3 ae 1c 1f d1 81 26 c7 01 72 71 4f 1c dc 6a c2
       -45 -82 28 31 -47 -127 38 -57 1 114 113 79 28 -36 106 -62
000080 fb 16 7f b8 e1 1e 18 f2 d8 2c 12 24 f4 1b f0 31
       -5 22 127 -72 -31 30 24 -14 -40 44 18 36 -12 27 -16 49
000090 0b 27 34 2e 69 1f 6f ab 35 3f d0 07 d8 7f ef 1e
       11 39 52 46 105 31 111 -85 53 63 -48 7 -40 127 -17 30
0000a0 b1 de 62 f6 07 dd 81 a5 c6 08 71 02 54 a5 22 cf
       -79 -34 98 -10 7 -35 -127 -91 -58 8 113 2 84 -91 34 -49
0000b0 f6 0c ec 7f 14 88 45 2a f9 0e 2e 7c 2c 98 56 de
       -10 12 -20 127 20 -120 69 42 -7 14 46 124 44 -104 86 -34
0000c0 48 40 45 8a 81 19 a5 4c 0a db 2f d5 00 b1 06 61
       72 64 69 -118 -127 25 -91 76 10 -37 47 -43 0 -79 6 97
0000d0 ca 9d b9 6b 7f 0a 1e ee 3c 0f 8f 53 57 56 fc 3f
       -54 -99 -71 107 127 10 30 -18 60 15 -113 83 87 86 -4 63
0000e0 c4 04 05 9c 16 b1 fb f5 33 3d 90 2d e4 cf 7f 36
       -60 4 5 -100 22 -79 -5 -11 51 61 -112 45 -28 -49 127 54
0000f0 ce 7f d8 ad 17 1d 25 c4 f6 09 f1 42 ec 5c be 07
       -50 127 -40 -83 23 29 37 -60 -10 9 -15 66 -20 92 -66 7
